…
[2025-12-04 11:12:34,840] [INFO] 参数配置：Namespace(dataset='msl', processed_root='./dataset/MSL', log_dir='./logs/msl', win_size=100, train_stride=1, test_stride=5, batch_size=32, epochs=50, lr=0.0001, weight_decay=0.005, seed=42, no_amp=True, max_grad_norm=1.0, patience=8, no_point_adjust=False)
[2025-12-04 11:12:34,929] [INFO] MSL 多通道数据集构建完成：entities=['C-1', 'C-2', 'D-14', 'D-15', 'D-16', 'F-4', 'F-5', 'F-7', 'F-8', 'M-1', 'M-2', 'M-3', 'M-4', 'M-5', 'M-6', 'M-7', 'P-10', 'P-11', 'P-14', 'P-15', 'S-2', 'T-12', 'T-13', 'T-4', 'T-5', 'T-8', 'T-9'], input_dim=55, len(train)=55644, len(test)=14223
[2025-12-04 11:12:37,690] [INFO] 模型结构：
MambaTSAD(
  (encoder): Linear(in_features=55, out_features=256, bias=True)
  (level1): ModuleList(
    (0-1): 2 x LSSBlockTS(
      (global_layers): ModuleList(
        (0-1): 2 x BiMambaBlock(
          (norm): LayerNorm((256,), eps=1e-05, elementwise_affine=True)
          (mamba_fwd): Mamba(
            (in_proj): Linear(in_features=256, out_features=1024, bias=False)
            (conv1d): Conv1d(512, 512, kernel_size=(4,), stride=(1,), padding=(3,), groups=512)
            (act): SiLU()
            (x_proj): Linear(in_features=512, out_features=48, bias=False)
            (dt_proj): Linear(in_features=16, out_features=512, bias=True)
            (out_proj): Linear(in_features=512, out_features=256, bias=False)
          )
          (mamba_bwd): Mamba(
            (in_proj): Linear(in_features=256, out_features=1024, bias=False)
            (conv1d): Conv1d(512, 512, kernel_size=(4,), stride=(1,), padding=(3,), groups=512)
            (act): SiLU()
            (x_proj): Linear(in_features=512, out_features=48, bias=False)
            (dt_proj): Linear(in_features=16, out_features=512, bias=True)
            (out_proj): Linear(in_features=512, out_features=256, bias=False)
          )
          (ffn): Sequential(
            (0): LayerNorm((256,), eps=1e-05, elementwise_affine=True)
            (1): Linear(in_features=256, out_features=1024, bias=True)
            (2): GELU(approximate='none')
            (3): Dropout(p=0.1, inplace=False)
            (4): Linear(in_features=1024, out_features=256, bias=True)
          )
          (dropout): Dropout(p=0.1, inplace=False)
        )
      )
      (local_branches): ModuleList(
        (0): LocalConvBlock1D(
          (block): Sequential(
            (0): Conv1d(256, 256, kernel_size=(1,), stride=(1,))
            (1): InstanceNorm1d(256, eps=1e-05, momentum=0.1, affine=False, track_running_stats=False)
            (2): SiLU()
            (3): Conv1d(256, 256, kernel_size=(5,), stride=(1,), padding=(2,), groups=256)
            (4): InstanceNorm1d(256, eps=1e-05, momentum=0.1, affine=False, track_running_stats=False)
            (5): SiLU()
            (6): Conv1d(256, 256, kernel_size=(1,), stride=(1,))
          )
        )
        (1): LocalConvBlock1D(
          (block): Sequential(
            (0): Conv1d(256, 256, kernel_size=(1,), stride=(1,))
            (1): InstanceNorm1d(256, eps=1e-05, momentum=0.1, affine=False, track_running_stats=False)
            (2): SiLU()
            (3): Conv1d(256, 256, kernel_size=(7,), stride=(1,), padding=(3,), groups=256)
            (4): InstanceNorm1d(256, eps=1e-05, momentum=0.1, affine=False, track_running_stats=False)
            (5): SiLU()
            (6): Conv1d(256, 256, kernel_size=(1,), stride=(1,))
          )
        )
      )
      (proj): Linear(in_features=768, out_features=256, bias=True)
    )
  )
  (level2): ModuleList(
    (0-1): 2 x LSSBlockTS(
      (global_layers): ModuleList(
        (0-1): 2 x BiMambaBlock(
          (norm): LayerNorm((256,), eps=1e-05, elementwise_affine=True)
          (mamba_fwd): Mamba(
            (in_proj): Linear(in_features=256, out_features=1024, bias=False)
            (conv1d): Conv1d(512, 512, kernel_size=(4,), stride=(1,), padding=(3,), groups=512)
            (act): SiLU()
            (x_proj): Linear(in_features=512, out_features=48, bias=False)
            (dt_proj): Linear(in_features=16, out_features=512, bias=True)
            (out_proj): Linear(in_features=512, out_features=256, bias=False)
          )
          (mamba_bwd): Mamba(
            (in_proj): Linear(in_features=256, out_features=1024, bias=False)
            (conv1d): Conv1d(512, 512, kernel_size=(4,), stride=(1,), padding=(3,), groups=512)
            (act): SiLU()
            (x_proj): Linear(in_features=512, out_features=48, bias=False)
            (dt_proj): Linear(in_features=16, out_features=512, bias=True)
            (out_proj): Linear(in_features=512, out_features=256, bias=False)
          )
          (ffn): Sequential(
            (0): LayerNorm((256,), eps=1e-05, elementwise_affine=True)
            (1): Linear(in_features=256, out_features=1024, bias=True)
            (2): GELU(approximate='none')
            (3): Dropout(p=0.1, inplace=False)
            (4): Linear(in_features=1024, out_features=256, bias=True)
          )
          (dropout): Dropout(p=0.1, inplace=False)
        )
      )
      (local_branches): ModuleList(
        (0): LocalConvBlock1D(
          (block): Sequential(
            (0): Conv1d(256, 256, kernel_size=(1,), stride=(1,))
            (1): InstanceNorm1d(256, eps=1e-05, momentum=0.1, affine=False, track_running_stats=False)
            (2): SiLU()
            (3): Conv1d(256, 256, kernel_size=(5,), stride=(1,), padding=(2,), groups=256)
            (4): InstanceNorm1d(256, eps=1e-05, momentum=0.1, affine=False, track_running_stats=False)
            (5): SiLU()
            (6): Conv1d(256, 256, kernel_size=(1,), stride=(1,))
          )
        )
        (1): LocalConvBlock1D(
          (block): Sequential(
            (0): Conv1d(256, 256, kernel_size=(1,), stride=(1,))
            (1): InstanceNorm1d(256, eps=1e-05, momentum=0.1, affine=False, track_running_stats=False)
            (2): SiLU()
            (3): Conv1d(256, 256, kernel_size=(7,), stride=(1,), padding=(3,), groups=256)
            (4): InstanceNorm1d(256, eps=1e-05, momentum=0.1, affine=False, track_running_stats=False)
            (5): SiLU()
            (6): Conv1d(256, 256, kernel_size=(1,), stride=(1,))
          )
        )
      )
      (proj): Linear(in_features=768, out_features=256, bias=True)
    )
  )
  (level3): ModuleList(
    (0-1): 2 x LSSBlockTS(
      (global_layers): ModuleList(
        (0-1): 2 x BiMambaBlock(
          (norm): LayerNorm((256,), eps=1e-05, elementwise_affine=True)
          (mamba_fwd): Mamba(
            (in_proj): Linear(in_features=256, out_features=1024, bias=False)
            (conv1d): Conv1d(512, 512, kernel_size=(4,), stride=(1,), padding=(3,), groups=512)
            (act): SiLU()
            (x_proj): Linear(in_features=512, out_features=48, bias=False)
            (dt_proj): Linear(in_features=16, out_features=512, bias=True)
            (out_proj): Linear(in_features=512, out_features=256, bias=False)
          )
          (mamba_bwd): Mamba(
            (in_proj): Linear(in_features=256, out_features=1024, bias=False)
            (conv1d): Conv1d(512, 512, kernel_size=(4,), stride=(1,), padding=(3,), groups=512)
            (act): SiLU()
            (x_proj): Linear(in_features=512, out_features=48, bias=False)
            (dt_proj): Linear(in_features=16, out_features=512, bias=True)
            (out_proj): Linear(in_features=512, out_features=256, bias=False)
          )
          (ffn): Sequential(
            (0): LayerNorm((256,), eps=1e-05, elementwise_affine=True)
            (1): Linear(in_features=256, out_features=1024, bias=True)
            (2): GELU(approximate='none')
            (3): Dropout(p=0.1, inplace=False)
            (4): Linear(in_features=1024, out_features=256, bias=True)
          )
          (dropout): Dropout(p=0.1, inplace=False)
        )
      )
      (local_branches): ModuleList(
        (0): LocalConvBlock1D(
          (block): Sequential(
            (0): Conv1d(256, 256, kernel_size=(1,), stride=(1,))
            (1): InstanceNorm1d(256, eps=1e-05, momentum=0.1, affine=False, track_running_stats=False)
            (2): SiLU()
            (3): Conv1d(256, 256, kernel_size=(5,), stride=(1,), padding=(2,), groups=256)
            (4): InstanceNorm1d(256, eps=1e-05, momentum=0.1, affine=False, track_running_stats=False)
            (5): SiLU()
            (6): Conv1d(256, 256, kernel_size=(1,), stride=(1,))
          )
        )
        (1): LocalConvBlock1D(
          (block): Sequential(
            (0): Conv1d(256, 256, kernel_size=(1,), stride=(1,))
            (1): InstanceNorm1d(256, eps=1e-05, momentum=0.1, affine=False, track_running_stats=False)
            (2): SiLU()
            (3): Conv1d(256, 256, kernel_size=(7,), stride=(1,), padding=(3,), groups=256)
            (4): InstanceNorm1d(256, eps=1e-05, momentum=0.1, affine=False, track_running_stats=False)
            (5): SiLU()
            (6): Conv1d(256, 256, kernel_size=(1,), stride=(1,))
          )
        )
      )
      (proj): Linear(in_features=768, out_features=256, bias=True)
    )
  )
  (decoder): Linear(in_features=256, out_features=55, bias=True)
)
[2025-12-04 11:12:37,691] [INFO] ========== Epoch 1/50 ==========
[2025-12-04 11:14:44,484] [INFO] 本 epoch 平均训练损失: 0.752456
[2025-12-04 11:15:18,031] [INFO] [Eval] F1=0.8727, P=0.8919, R=0.8542, AUC=0.5449, thr=1.954272, point_adjust=True
[2025-12-04 11:15:18,326] [INFO] 发现更优模型，已保存至 ./logs/msl/best_model.pt
[2025-12-04 11:15:18,614] [INFO] 已保存可视化图：./logs/msl/scores_epoch1.png
…
